pytorch_mnist(1).pt (torch, 274520 bytes, 10 tensors)

weight f4 [6, 1, 5, 5]
00000000: a65c f53c f10c c23d ac2d 0bbe fb74 173e
00000010: 0252 00bd b73e 34be 7f94 f33d c3d3 0fbe
00000020: 6c41 90bd a724 80bd 622d 983d cf35 4f3e
00000030: bb3c 4abe 48f8 183e fe30 19be c915 513d
00000040: 037d f6bd 61d3 e5bd e249 1b3d 9aac 37be
00000050: 6f93 20be ebcf 3a3e 4cbd 413e 2a18 5dbd
00000060: 9382 0ebe 5908 90be 7957 e7bd debd d53e
00000070: a128 063f 1190 7d3e 78e6 a43d c432 923e
00000080: 54aa ff3e 37a1 0d3f 1532 de3e 1a76 9fbd
00000090: 4e26 953e fcac 113e 7811 c6bd 1629 7f3d
000000a0: 8c8d 483e d8b1 9fbd 7519 0abe 2034 8fbe
000000b0: eb3b 3cbe a9a1 54be c51f 04bd ab79 48be
000000c0: 7881 8ebe eeb7 17be 8fbf 2dbd 2c87 6fbe
000000d0: 9d48 c0be 49a5 883d 3e3f 5c3e b180 1cbe
000000e0: 655c acbe 7933 80be d730 853d f323 2c3e
000000f0: 3317 313d f452 a4be 859d 563e f427 513e
00000100: 8c98 933e d53d d7bc 4536 273e c499 f63e
00000110: c69c 263f abd2 4f3f 6b24 89bd 2324 b93e
00000120: 93ee d33e c795 ec3e 901c fa3e 3fee 00be
00000130: 08bc 8fbc 028b a63d a676 6bbd 0827 38be
00000140: c8a7 773e b62a ec3d bd48 913e fba7 d3bd
00000150: da5a 3cbe 8eaf a13e 3f76 6f3e accf 363e
00000160: fb53 45be ce32 363d a7da dbbc 7810 983e
00000170: 02d6 6ebe 45d5 72be 9c21 f0bd 5faf 2f3e
00000180: 7b7d 95bd d4a3 12be 0e73 4cbe 5e9c 63be
00000190: 695a 2c3e c9d8 ce3d 4370 e83c ebb0 773e
000001a0: b69a 983d 8ec6 d6bd 57d2 8a3e 054a 1c3f
000001b0: 3bd0 153f 7bd0 14be 6b37 2cbe 418c a7bd
000001c0: 5f20 283e 888b c73e 020f 21be e073 88bd
000001d0: c099 273d dcf5 d83e 10a7 d13e 4a4a da3e
000001e0: dab3 b1be c01e 97bd 1f2c b23e 913e 083e
000001f0: 0892 d93c 4f99 2abd 464f 5fbe 061d 3ebe
00000200: 3541 c03a d6f8 213e 0630 41bb cac2 4dbe
00000210: e048 353b 5191 19be 5dfe e1bd ff00 4d3e
00000220: 5175 fabd 8dac 29be c143 23bd 6a90 31be
00000230: 00f0 f73d c51c 163c ce8c 4e3d 57ff 17bd
00000240: 05f6 18be d89e af3e 8feb a83d 24c4 c5bd
00000250: 958b 183e 076e 593d
0.029951405 0.094751246 -0.13591641 0.14790718 -0.03132821 -0.17602049 0.11893558 -0.14045624
-0.07043728 -0.06256991 0.07430531 0.2023537 -0.1974973 0.14938462 -0.14960095 0.051046167
-0.12035563 -0.11221958 0.037912257 -0.17936936 -0.15681241 0.18243377 0.18919867 -0.053978123
-0.13916998 -0.2813137 -0.11295981 0.4174642 0.52405745 0.24761988 0.08051771 0.28554356
0.49934638 0.5532412 0.43397585 -0.07786198 0.29130787 0.14226145 -0.09671301 0.062295042
0.19585246 -0.07797593 -0.13486274 -0.27969456 -0.18382232 -0.20764793 -0.03225686 -0.19577663
-0.27833152 -0.14816257 -0.042419013 -0.23391408 -0.375554 0.06672151 0.215085 -0.15283467
-0.3366424 -0.2503927 0.06503456 0.16810589 0.043235015 -0.32094538 0.20958526 0.20425397
0.28827322 -0.026274601 0.16329296 0.4816419 0.6508297 0.8118083 -0.06696399 0.36160383
0.41392955 0.4620802 0.48849916 -0.12590884 -0.017545715 0.081319824 -0.0574862 -0.17983639
0.24185097 0.11531584 0.28375807 -0.10334774 -0.18394032 0.3157925 0.23384951 0.17852658
-0.19270317 0.044482045 -0.02683766 0.29700065 -0.23323825 -0.23714168 -0.117251605 0.17156743
-0.07299324 -0.14320308 -0.19965765 -0.22227618 0.16831364 0.10099942 0.028373843 0.24188583
0.07451384 -0.1048709 0.27113602 0.61050445 0.5852086 -0.14532654 -0.16818015 -0.08181048
0.16418599 0.3897364 -0.15728381 -0.066627264 0.04091811 0.42375076 0.4094777 0.42634803
-0.34707528 -0.07378912 0.34799287 0.13305117 0.026558891 -0.041650113 -0.21807584 -0.18565759
0.0014667871 0.1581758 -0.0029478087 -0.20093837 0.0027661845 -0.1499684 -0.11034844 0.20019911
-0.122294076 -0.16569729 -0.039859537 -0.17340246 0.12106323 0.009162133 0.05042725 -0.037108745
-0.14937599 0.34300876 0.08248054 -0.096565515 0.14896996 0.053083446

bias f4 [6]
00000000: e77b 42be 69bf 0a3d dd85 0fbd b42a ce3e
00000010: bf2f 86be 70e7 e63e
-0.18992577 0.03387395 -0.03503977 0.40266955 -0.26208302 0.45098448

weight f4 [16, 6, 5, 5]
00000000: 37d6 1abd 31d4 97bd 1e31 403d 757f 0e3d
00000010: b79c a23d c173 94bc d5fe a5bd c4d3 9e3c
00000020: c4e8 dcbb 66e2 543d 39f9 92bd 3e05 00bd
00000030: 0351 f4bc cb57 7ebd afd7 3dbd da96 b83c
00000040: 846e 903d ff2f 99bd 7325 a53c efb2 573d
00000050: 21a6 9fbd 18c8 963c 5ee8 30bd 2a2b 3e3d
00000060: b0f2 c93c c02e 653b a5f1 ce3d d7d1 2dbd
00000070: 97aa 99bd b5a3 b03d 1beb 0ebc 5ffd 27be
00000080: 1fd7 32be 571f 8d3d de48 c43b 919d 15b8
00000090: fb57 bfbc f5be 853d 3fff 513d 7b4a 6dbe
000000a0: 6143 ec3b 135d 4abb 6c61 3d3b 00ea 72bc
000000b0: 63c3 5d3b 8922 a6bc c2df 15bd 3bae 28bd
000000c0: 61e8 e73c 3c6b 1b3e d189 a6bd c8aa e7bd
000000d0: 6e73 f33d 8eb1 433e 45ed 4abe 17e1 01bd
000000e0: 6392 153d 2713 793e d564 053e 7dd7 c1be
000000f0: 72ca ddbd 02bb 06bc 145a ec3d c042 4c3d
00000100: b8af a4bc 961e 70be eeaf 12be 13d1 3e3e
00000110: aa90 893d 4d1b 1bbd 4389 3dbe d157 adbc
00000120: 929a 50bd 04d8 26be f91e 7abe df87 acbc
00000130: 0db5 573d d0fa babd 88a1 bbbd 1fe1 0c3c
00000140: 5f27 85bd 3f4c 53bd fc43 0cbe 2233 b4bd
00000150: 9105 9e3d 9a84 cd3c 276d 253d 5591 febd
00000160: 32c2 033d 119c 003d db23 35bd d99b 87bb
00000170: 92ce e1bd 7e3e 4ebb 395a ffbd aec6 92bc
00000180: b77c 3cbd 6666 4cbd bb9c 96bd 3ce6 4a3c
00000190: c4e0 613d b0ee 2dbc 7cce bd3c 93a5 283e
000001a0: 3b92 ecbd 742f ecbd f2fe d2bc dcd4 ab3d
000001b0: 634a b53d dcfd c9bd 49d7 43bd 5b3c 15be
000001c0: 83d2 983e babb 823e bb7a 49be 549e 09be
000001d0: fad9 f6bd 096b 533e daf3 6c3e 1c25 403c
000001e0: 04ee 16bd 2d28 a4bd 2dc2 7bbd 908e 203d
000001f0: af68 37bd e3c0 263c 06e3 97bd 33c6 a1bc
00000200: d90d 82bd 7a91 4fbd 98e7 12bd b8b2 0abe
00000210: 8d53 e5bd 57b3 e5bc c304 b3bc c5bb 44bd
00000220: b0c1 52bc 325b 1cbe c946 dbbc 1cc8 383d
00000230: edb9 a6bd 276c e13c b9de 11be ae0e dabc
00000240: 262a 9bbd 96a7 bdbc 26aa 34bd e0d9 0dbd
00000250: df58 63bd 047c 8dba 4e0b 043d b4be e6bc
00000260: 32ed 62bd 80cb 533d 81ad 04bc d815 c83c
00000270: 82b7 18bd 41f4 833d 2942 353d 6939 7e3d
00000280: 0f96 17bd feea 5cbb 7d04 5ebd 8cc4 e0bc
00000290: 4771 5e3d df33 febc 2ff8 00bd 1f59 80bd
000002a0: 4c8c 983d 1232 db3b 998d 903d e69a cc3b
000002b0: bdae 853d 18d2 55bc 6e25 18bd 5316 a9bd
000002c0: 6af8 a9bd e9c2 dcbd 8f39 f2bd e36b 09be
000002d0: e8fe 033e c363 d83d 70af 95bd 4a76 13be
000002e0: fb70 edbd 6501 5a3c d25d da3d b132 183d
000002f0: 5c0f 1abe 2fc3 a1bd 0695 95bd 9ae7 fabd
00000300: 18a7 64be 26d3 1abe af69 073e b9c9 223d
00000310: 7562 f03d 016c 5fbd 3eaa a03d e210 a33d
00000320: 1a66 a63d e6b4 e93d 7bf6 ebbd d2c0 683c
00000330: 4faf 1bbe 010a 92bd ba38 75bd 8569 2cbe
00000340: ae2e f3bd 69d8 743d 7f91 32be afdd 14be
00000350: fcd7 e7bd 38c4 0f3e 85d1 113e a21b c13c
00000360: 0c78 fb3d 4351 e83d 2f2b 8e3e 9bbe 27bb
00000370: 6000 2abe 9f75 1cbe 43ec 5a3d 9277 313e
00000380: ce6a 72be c28b e3bd 91ea a3bc cf4b 263d
00000390: 03db e13c f210 80bd 5211 ffbd 1441 a4bc
000003a0: 88f2 273d 9abf 953b 307b 73bd bcc2 09be
000003b0: 7749 9bbd b273 63bd ef07 5bbd fb2e 8bbd
000003c0: 64c9 d9bd e247 18bd f7d4 a03c 4298 8abd
000003d0: a8b4 0a3d 184d b9bb 9b83 963c 5b40 883a
000003e0: a82f 433d 84d8 cc3d e60a 6d3d 874c a13d
000003f0: a6a2 f2bd 0bdd 6dbe 2f9a e5bd d725 a3bc
-0.037801947 -0.07413519 0.04692184 0.03478952 0.07940047 -0.018121602 -0.08105246 0.019388087
-0.006741615 0.051973723 -0.07176442 -0.031255 -0.029823786 -0.062095445 -0.04634827 0.02253287
0.07052329 -0.07479858 0.020159459 0.05266088 -0.077953584 0.018405959 -0.043190353 0.046427883
0.024651855 0.0034970492 0.10104684 -0.042436447 -0.075032406 0.08624975 -0.008723046 -0.16405247
-0.17464875 0.06890743 0.0059901318 -3.5671113e-05 -0.023357382 0.06530563 0.051268812 -0.23172943
0.0072101806 -0.003087823 0.002889718 -0.014826298 0.0033838383 -0.02028014 -0.036590345 -0.041181784
0.02830905 0.15177625 -0.08131755 -0.11311871 0.11887251 0.191107 -0.19817074 -0.031708803
0.03651656 0.24323712 0.13026746 -0.37859717 -0.10829629 -0.008223297 0.115406185 0.049868345
-0.02010332 -0.23449168 -0.14324924 0.18634443 0.067170456 -0.037867833 -0.18509392 -0.021160038
-0.05092866 -0.16293341 -0.24425878 -0.021060882 0.052662898 -0.0912987 -0.09161669 0.008598595
-0.0650165 -0.051586386 -0.13697809 -0.08798815 0.077159055 0.025087643 0.0403873 -0.12430064
0.03216762 0.031398837 -0.044223648 -0.0041384515 -0.11025728 -0.0031470354 -0.124683805 -0.017917003
-0.046017375 -0.049902342 -0.07354113 0.012383994 0.055145994 -0.01061599 0.023169748 0.16469412
-0.11551329 -0.115324885 -0.025756333 0.08390209 0.08852079 -0.09862873 -0.047812734 -0.14573805
0.29848108 0.2553385 -0.19675724 -0.13439304 -0.120532945 0.206463 0.23139897 0.011727598
-0.036848083 -0.080154754 -0.061464477 0.03919846 -0.04477757 0.010177824 -0.07416348 -0.019747829
-0.063502975 -0.050675847 -0.035865396 -0.13544738 -0.11197577 -0.028039617 -0.021852857 -0.048030633
-0.0128635615 -0.15269163 -0.026767151 0.045112714 -0.08140931 0.027517391 -0.14245118 -0.026618328
-0.075763986 -0.0231512 -0.04410758 -0.03463161 -0.055504676 -0.0010794406 0.032237343 -0.028167106
-0.05540199 0.051707745 -0.008098007 0.024424478 -0.03728438 0.06443072 0.04425255 0.06206647
-0.03700834 -0.0033709402 -0.0542035 -0.02743747 0.05430725 -0.031030593 -0.031486686 -0.062669985
0.074486345 0.0066893185 0.070582576 0.0062440513 0.06527469 -0.013050579 -0.03714507 -0.08256211
-0.08299334 -0.10779364 -0.11827385 -0.13420062 0.12890208 0.10565903 -0.07308853 -0.14400592
-0.11593815 0.013305997 0.10662426 0.037157718 -0.15044922 -0.078985564 -0.073038146 -0.12251206
-0.22329366 -0.15119609 0.13223909 0.03974316 0.11737529 -0.05454636 0.07844971 0.079622045
0.08124943 0.11411457 -0.11521622 0.014206128 -0.15203594 -0.07130814 -0.05986855 -0.16837128
-0.11874138 0.059776697 -0.17438315 -0.1453769 -0.113204926 0.14039695 0.14240082 0.023572747
0.122787565 0.113436244 0.2776732 -0.0025595787 -0.16601706 -0.15279244 0.053447973 0.17330769
-0.23673555 -0.11110641 -0.02000931 0.04059964 0.027570253 -0.06253232 -0.124544755 -0.020050563
0.04100278 0.00456996 -0.059443653 -0.13453192 -0.07582372 -0.055530258 -0.053474363 -0.0679607
-0.10634115 -0.037177928 0.0196328 -0.06767322 0.033863693 -0.0056549422 0.018373301 0.0010395156
0.04765287 0.100022346 0.05787172 0.078759246 -0.11847429 -0.23228852 -0.11211049 -0.019915504

bias f4 [16]
00000000: 9391 42be 292c 2abe af93 8ebd bbe5 f2bc
00000010: bc28 85bd eafc 3e3c 7d5d 4abd b9a4 2bbe
00000020: e96d dfbc 92d6 92ba 1a1d 973c 84d3 4c3d
00000030: 8c5a 13bd 904d ef3c 04ce 11be 8a2e 39bb
-0.19000845 -0.16618408 -0.06961762 -0.02965056 -0.0650191 0.011656979 -0.049405564 -0.16762055
-0.027274089 -0.0011202863 0.018446494 0.050006405 -0.035975024 0.02921179 -0.14238745 -0.00282565

weight f4 [120, 400]
00000000: 0d3c 46bd 620d 003c 54d8 283d 5cb0 adbd
00000010: 8d7a 3dbd c198 feb9 ceaa 9cbb 838e 483d
00000020: 5f3a 2dbb 40b4 7aba 5366 eabd a481 a2bd
00000030: e27d 773d 8c26 833b 63d7 193d 74d7 87bd
00000040: abba 21bd 4ff5 73bd aff0 9cbc 7ff4 41bd
00000050: 64df 373d 5133 b63d 75e7 1e3d 299c 19bd
00000060: ff4d 4f3d 341d 1d3d 0832 b83c 17f5 103d
00000070: 1f50 a83b a2e0 d0bc 911f 01be 11bb eb3c
00000080: 3c8c c63c 3e4e ad3d 0b66 873c db59 febc
00000090: ae59 9e3d 4d7e 603d 4b2f e7bc c51b ec3c
000000a0: b1f1 e83c 9896 29bc 7e33 9ebd a8dc 1bbc
000000b0: ddcf fe3c 6767 de3d 3787 893c c852 91ba
000000c0: d5d1 cebc 523a 6dbc 22e2 043d f5ae 17bd
000000d0: 8727 0f3c 0119 f63c e40d 9cbc 355a 3ebd
000000e0: 1ad2 c1bd d43d bc3c ba89 a8bc dc23 ffbc
000000f0: e668 b7bc 1854 adbc a37d 273d b117 fe3a
00000100: ef14 27bd 0e91 56bd 2027 a2b9 7291 efbc
00000110: 4ae7 aabc 046b 0cbd 7ee0 00bc a58d 7f3d
00000120: 06a6 61bd a954 d03b 2f38 19bd 7f89 a7bc
00000130: 51a4 58bb 8032 67bd 503b 733b d64c 8cbc
00000140: 8804 6abc 341c c63c a3ee 44bd 265d c0bc
00000150: 9680 46bd 735d 5cbd 1dd4 a53c 1911 eb3c
00000160: ee83 e2bc a04d dcbc e970 17bd fc95 9239
00000170: f9fd 24bc 4e31 00bb 8985 ea3a a65c 9e3c
00000180: 5d71 29bd 2c38 3a3d 29af 6d3d cfde 28bd
00000190: 73f6 f83c f786 653d 0c04 00bd e602 69bc
000001a0: 6191 2dbd 3a6d 0d3e 696d bd3d 7ecc 713d
000001b0: 4f73 3ebd 1f0c 98bc a951 253c 7804 d73b
000001c0: 21b1 5c3d 7958 8a3c 7c81 1bbd 2d53 853c
000001d0: ae5a 7dbd b111 22bd 0679 6f3d 7e46 933a
000001e0: fdc1 9bbd 8c9d 88bd 7bd0 f8bd 47c5 893c
000001f0: eb3e 01bd 3237 f43c 5ca1 3ebc a52c 84bc
00000200: d708 c2bb d7c6 0d3d eb76 5abc 1757 c2bc
00000210: 8d53 57bc d2ab 313d 2a29 6e3c e9c5 733b
00000220: 1fb3 823a 22e7 76bc e0dd 2abd e981 19b9
00000230: 5bf6 023c 604a 35bc acd2 98bc cb80 a73c
00000240: a6ad 113c d5d4 3dbd f0fc 223d 1ddd cfbc
00000250: 6e01 bebc c2e3 603d 6cc3 c03c f913 73bb
00000260: e525 003d c896 283c 0bdb 483d e997 3e3c
00000270: 2f2e 4ebc 5021 0abd 41ed 63bc 2798 a6bc
00000280: 535d 05bd ec41 8a3c 8a1e 463d cd10 4e3b
00000290: 5065 943b 26e7 6d3d 835a 63bc 5c42 86bc
000002a0: d8ab 9b3b 1322 1dbd c99e 6c3d 3ccf 133c
000002b0: 1d8c 193d d1b4 033c 7dfc c13a a17c 573c
000002c0: baed 803d 87a2 c73d 491b e6bd 7940 ae3b
000002d0: 7007 f43d b546 bf3d 31a4 443e 75b6 623d
000002e0: da5f 9dbc 3902 24be 2bc2 3fbe 8530 cfbd
000002f0: dd57 963d cc64 bbbb 8b04 d4bd bc9e 713d
00000300: 4b3e d13b 65ba 943c 7fc8 a2bc 09b8 0dbd
00000310: 3f4a bebb 6bab f2bb 9912 cdbd 31ab 013d
00000320: 74f4 3cbc 45b1 6e3d b428 1cbd 0f3f cf3b
00000330: fdd3 9dbc eaff b23a 17c7 363d 5457 6d3c
00000340: 90af 9c3c c602 063d 7c2a a43c 288e 503b
00000350: 18de 6a3c 3a9a 0fbb b8fd 8e3c 7660 0abd
00000360: 4a41 0a3c aeb0 1bbd d23d 0ebd 6443 f83c
00000370: e049 2d3d d0b2 aebc 0aa9 433d 2c05 10bd
00000380: 450e 1abd 03ea f2bc 2706 ae3c a7d4 1a3d
00000390: 51cd 7b3c 81ea ea3c abb3 473d 87df e5bb
000003a0: f95d 2dbd ae39 ffbc 88ed d1bb 76df 523c
000003b0: 01c5 a73c 460c ac3c 0da5 42bc 2b0e 03bd
000003c0: 6aaa febc e1d6 bd3c 5580 afbc a892 6abb
000003d0: 9024 d8bc 61a8 a1bc f320 cd3c 5c3c da3c
000003e0: cb14 e6ba 7355 28bd 7529 513d fb9b 9a3c
000003f0: 4c05 1b3c e445 5d3d ad28 433d d317 cdbd
-0.048397113 0.007815691 0.04122193 -0.084809035 -0.04625945 -0.00048560466 -0.0047811037 0.048964035
-0.0026432497 -0.00095636025 -0.11445298 -0.07934883 0.060422786 0.004002398 0.037558924 -0.06632891
-0.03948466 -0.059560116 -0.019157736 -0.04735231 0.044890776 0.088965066 0.038794953 -0.03750244
0.050611492 0.03835793 0.022484794 0.035389986 0.0051365043 -0.025497738 -0.12609698 0.028775724
0.02423679 0.08462189 0.01652815 -0.031048706 0.07731949 0.05480795 -0.028220793 0.028821835
0.02843556 -0.010350846 -0.07724665 -0.009513058 0.031104976 0.10859566 0.016788108 -0.0011087293
-0.02524654 -0.014479237 0.03244222 -0.037032086 0.008737451 0.03004122 -0.019049592 -0.046472747
-0.09463902 0.0229787 -0.020573486 -0.031145029 -0.022388887 -0.021158263 0.0408913 0.0019385723
-0.04079145 -0.05238443 -0.00030928198 -0.029244158 -0.02086224 -0.034281746 -0.007866023 0.062390942
-0.055089973 0.0063577485 -0.037407096 -0.020451305 -0.0033056925 -0.056444645 0.003711421 -0.017126482
-0.014283307 0.02418337 -0.048079144 -0.023481917 -0.048462473 -0.053800058 0.020242745 0.028694676
-0.0276508 -0.026892483 -0.036972914 0.00027959037 -0.010070317 -0.0019560638 0.001789258 0.019331288
-0.041367877 0.045463726 0.058028374 -0.04122811 0.030390954 0.056036916 -0.03125386 -0.014221882
-0.042374972 0.13811198 0.09249384 0.05903291 -0.046496686 -0.018560467 0.01009027 0.006561812
0.05387986 0.01688789 -0.037965283 0.016275013 -0.061854057 -0.039567653 0.058465026 0.0011236218
-0.0760536 -0.06670675 -0.121491395 0.016817702 -0.031554144 0.029811475 -0.011635151 -0.01613457
-0.005921464 0.034613457 -0.013334016 -0.023723168 -0.013142479 0.04337675 0.014536181 0.003719682
0.0009971595 -0.015069755 -0.041715503 -0.00014639612 0.007993306 -0.011065096 -0.018655144 0.020447155
0.008891499 -0.04634555 0.039792 -0.02537399 -0.023194041 0.054904707 0.023530684 -0.0037090762
0.03128614 0.010289855 0.04903702 0.011632898 -0.012584253 -0.033723176 -0.013911546 -0.020336224
-0.032559704 0.016877137 0.048368968 0.003144312 0.004528679 0.05808177 -0.01387656 -0.016389064
0.00475071 -0.038362574 0.057768617 0.0090215765 0.037487138 0.008038715 0.0014799979 0.013152272
0.06295343 0.097477965 -0.11235673 0.0053177443 0.11915481 0.09339658 0.19203259 0.055349786
-0.019210745 -0.16016473 -0.18726413 -0.10116676 0.07340977 -0.005718803 -0.10352429 0.05898927
0.0063855997 0.018155286 -0.019870995 -0.034599338 -0.0058071907 -0.0074056885 -0.10013313 0.0316574
-0.011532892 0.058274526 -0.038124755 0.006324656 -0.019266123 0.0013656591 0.04462346 0.014486153
0.019126683 0.03271749 0.02003979 0.0031823013 0.014335178 -0.0021911995 0.017454967 -0.0337834
0.008438418 -0.03801029 -0.034726925 0.030305572 0.04230678 -0.021325499 0.04776863 -0.035161182
-0.037611265 -0.029652601 0.021243168 0.037800457 0.015368775 0.028676273 0.04875533 -0.007015172
-0.042325947 -0.031155434 -0.0064064898 0.01287066 0.020479681 0.021001946 -0.0118801715 -0.031995934
-0.03108712 0.023173751 -0.021423498 -0.003579298 -0.026384622 -0.01973361 0.025040125 0.02664011
-0.0017553804 -0.041097116 0.051064927 0.018873205 0.009461712 0.05402173 0.047646213 -0.1001431

bias f4 [120]
00000000: 0568 383d 194e e4bb ea22 b03c 9cbc 213c
00000010: 7be4 31bd c9ff ed3c a36b 413c bae6 f6bc
00000020: 1096 ce3c 78e5 d4bc 04f7 da3a 3998 29bd
00000030: dcaa 3a3d aeed 48bd 87a1 723c 6244 3d3d
00000040: 424a d83c 8ade 4ebc c87a fd3c 8e30 933b
00000050: 409b c33c 2999 65bc 2845 923b c4b2 27bb
00000060: 3a3f 00bd 956c a2bc 17b3 473d eed6 963d
00000070: 39c9 083b 732e 1d3c 5b41 a0bb b10b a0bc
00000080: 1f32 beba e4b2 b1bc 709f b0bb 9749 d33c
00000090: 77cb cd3c de7a 68bb e0ae 0b3d 3e59 9e3a
000000a0: c334 9cbc 24ac 2cbc a4fe d33c 97d7 9a3b
000000b0: 4c7c 673d 885c 95bc ea83 5dbc 96f2 98bc
000000c0: 2bc1 083d ca17 a03d 8f34 263d c008 23bd
000000d0: 956a c03b 3b04 9fbb a058 55bd 5b86 80bb
000000e0: e51b 063c 46e0 2a3d ded8 61bb 9026 8d3c
000000f0: 3d36 1bbd 86ef e53c 6b12 653b a5bc 7abb
00000100: b72a 80ba 5761 5d3c 0504 23bd a074 d73c
00000110: d1fe 3b3c 364f 143d 3ecd 523d 2513 c83c
00000120: 6004 8c3c c299 0b3b c00b 473c de4f eebc
00000130: 7873 143d 2533 4ebd a6e8 41bb bb78 e9bc
00000140: 8386 4ebd 811a 123c f50d dabc 7262 253d
00000150: 019b c9bc c997 3d3d ee44 23bd 1056 69bd
00000160: 87d4 f73b 8df3 533d d1d3 553d 0a5a 20bd
00000170: 2d1f 25bd d430 693d 2b68 473d 05c7 333d
00000180: 5a3e 023d 7500 843d ae36 bf3a eacd 7c3d
00000190: 58a8 293d f149 99bc b27d 663d 3245 ae3c
000001a0: 679b 12bd 322e 503c 65b6 28bd 2e74 d8bc
000001b0: 856e 493d 51f9 2f3d 2201 39bc f557 2e3c
000001c0: 9fc3 a4bc b1a4 ba3c a42d 3d3d d522 383d
000001d0: 4add 023d 6c59 1d3d 3608 fe3c eeb1 f73c
0.045021076 -0.006967318 0.021501023 0.009871628 -0.043430787 0.029052632 0.011805448 -0.030139316
0.02521804 -0.025988325 0.0016705696 -0.041404936 0.0455731 -0.049054794 0.014809019 0.046207793
0.026402596 -0.0126263 0.030942336 0.004491872 0.02387774 -0.014013567 0.0044638105 -0.002558873
-0.031310298 -0.019827167 0.048754778 0.07365213 0.0020871891 0.009593594 -0.0048906035 -0.019536825
-0.0014510787 -0.021691747 -0.0053901 0.025791926 0.025121434 -0.0035473625 0.03410232 0.001208104
-0.019068127 -0.010539088 0.025878258 0.0047254073 0.056515023 -0.018232599 -0.01352022 -0.018670361
0.033387344 0.078170374 0.040577468 -0.039803267 0.0058720806 -0.0048527992 -0.052086473 -0.0039222664
0.0081853615 0.04171779 -0.0034461538 0.017230302 -0.037893523 0.028068315 0.0034953605 -0.0038259414
-0.0009778355 0.013511977 -0.039798755 0.026300728 0.011474327 0.036208354 0.051465265 0.024423191
0.01709193 0.0021301364 0.0121487975 -0.029090818 0.036242932 -0.050341744 -0.0029588132 -0.028499952
-0.05042125 0.008917452 -0.026617983 0.040377088 -0.024610044 0.04628733 -0.03986066 -0.05696684
0.007563177 0.05174594 0.052203957 -0.039148368 -0.040312935 0.05693133 0.048683327 0.04389097
0.031797744 0.064454 0.0014588439 0.061719812 0.04142031 -0.018712016 0.056272216 0.02127323
-0.035792734 0.012706326 -0.04118957 -0.026422586 0.049177665 0.042962376 -0.011291774 0.010641088
-0.02011281 0.02278361 0.046186104 0.044955093 0.03194932 0.038415357 0.031009775 0.03023621

weight f4 [84, 120]
00000000: b17e 1fbd 3d24 33bc 8fdf 153e 31c7 35bd
00000010: 7718 ea3c e388 9cbd 32d6 5dbd 0824 4cbc
00000020: 078c 66bc fc47 7d3d 46f9 ab3d cb8f 94bd
00000030: 26e5 0bbd 9f5f 51bd 31f8 833d e25a fbbd
00000040: 2863 44bd 5c37 9c3d 4742 ebbd 76ca 80bd
00000050: 4d7a 3a3c 8c2b 76bd 3e4c 87bd 06dc 733c
00000060: 5e36 a63b a38c af3c 4a1f 86bd ece6 2c3c
00000070: 8bf8 9e3d 5f49 483d 7822 bcbd f0fd c9bd
00000080: 6bd6 9dbd 9e00 d6bc cd58 babd 7c45 823d
00000090: 193e bcbd 6ad0 02be a6eb 33be 03eb 133d
000000a0: b812 69bc 500f aa3d 41b2 303e 1952 c13c
000000b0: 3258 4c3b 93a3 893b d6c9 183b fe87 cb3d
000000c0: 8eae 0dbc 5a53 8f3d b3f1 743d 82d7 c33c
000000d0: 4574 a53d 7fce 2b3d 6016 8abb 16e4 b43c
000000e0: 340d f43c 538b cfbd e76a 8bbc befe 01be
000000f0: 7bce a43d f929 71bd dc6d f9bc 607b 5fbd
00000100: 02ab 163e 7c71 903d 1f8e e83d f005 1bbd
00000110: bf77 893c f7d1 043e b709 583c 326c 6d3d
00000120: 67d6 803b 5bd2 603d cdec 14bd 1f7e 4dbb
00000130: 644e 9ebc d92e 3b3d 237e 193d 24ba e93c
00000140: 8d24 da3c 1389 c6bd d3bc 153d 3d2a 06bd
00000150: dc36 acbc cd42 af3b 270a 763d 7ba8 013d
00000160: 59d2 b8bc 63c5 0f3d c3e0 833d a4b6 9e3d
00000170: a5b2 6dbd 60b1 6bbd 0e25 b6bd 001d 483c
00000180: d792 a23b 59c7 cdbb 36f2 ad3d 0261 acbc
00000190: ce0e 0abe 8532 22bd cc79 a5bd 8bfd a5bc
000001a0: 686d 0d3d 59c8 d73c e015 3f3d 1945 883c
000001b0: 26d3 833d b0b9 0abe 9d0d 703d 97d0 6abc
000001c0: 79e9 a7bd 28a5 a43a c970 0f3b 9549 afbd
000001d0: 1dde 38bd 4e7b 503d efce b63d 8abc 30bd
000001e0: e22c a4bd 2db1 b5bc aeae 42bb 24d6 42bd
000001f0: 6247 0cbd 3a31 453c dca7 a0bd e9c3 80bd
00000200: ecd5 8d3c a292 393d c53e ab3d a1a5 933d
00000210: 21dd dcbb 4f6b 0c3c 3bd8 c23c ef26 ddbd
00000220: 45e1 3cbd 86ae 933d 05ba 39bd 38b3 6fbd
00000230: 526c a7bd 91bc e8bb 48d8 823c 204b 153d
00000240: 9563 02bb 5c65 c3bc 15ee 283d d29a 2d3d
00000250: aa9c 873d b475 e83c 20f1 143d 71af e2bd
00000260: fce7 5fbd 38b1 3ebd 1a4d fe3b 7ba1 843d
00000270: 1181 553d 6efb 15be bfc7 443c 90a6 2cbd
00000280: 794f 3b3d 65e9 de3d 08bb 063e 2517 e5bd
00000290: b38b 94bd 7aaa 4bbb 67d3 053d 29d9 ea3d
000002a0: 9081 23bc 9685 8abd 7277 80bd 87c2 c93d
000002b0: 34dc 493c 9425 19bd 2962 a8bd f1e4 d2bd
000002c0: afa5 d4bd e90b f0bd 919f a43c 7497 7abc
000002d0: 6d90 ed3c 421a b5bc 98b3 03bc 887b 6dbc
000002e0: 25e4 783d 2c8e 7039 f5d4 ac3d 723e 7bbd
000002f0: 8ce5 debc f0e0 c03d eeed 5dbc fb9d 57bd
00000300: 42a0 1bbd 551b 01be 6484 f03c f4d8 173e
00000310: dc77 f3bb 4ff7 9c3d bb18 00bd c144 293d
00000320: 9d8a 91bd dafb 19be 2bff 35bc ab6e a2bd
00000330: c43d 36bd 862f 863d ca4a 88bc fa77 74bd
00000340: dc21 0cbe 5ee0 0c3e af05 92bd d41c 313d
00000350: 5496 abbd fabb 673c bb46 52bd fd82 a73a
00000360: e002 4b3d bc09 6fbd 0b8a bd3d 6b40 9b3d
00000370: d45b b83d 4e96 9d3d d249 1bbe 69f9 d6bd
00000380: d2ba f7ba 8843 18be b576 fa3d 5e18 b93d
00000390: f473 ea3c f504 a8bd 85df 3b3d cdbd 133d
000003a0: 5f80 8b3d cc1c 9bbd 25f4 9f3d 5d9d e8bd
000003b0: 28b2 bcbd fda9 8b3d 5bff e33d 2238 babb
000003c0: 1800 85bd a2ce 16bd 43a5 15bd cbea 50bd
000003d0: 085c a63d aa03 e6bd 8500 813d 0c09 523c
000003e0: c77a 80bb 2c73 cdbc c27c 9b3d 70bc 943d
000003f0: c154 ccbd 024c b93d 8dc7 7c3c 1a67 04be
-0.03893918 -0.010933933 0.14636062 -0.044379417 0.028576119 -0.076432966 -0.05415935 -0.012459762
-0.014071471 0.061836228 0.083971545 -0.07253989 -0.03415408 -0.051116582 0.06443823 -0.12273194
-0.047946125 0.076277465 -0.11487251 -0.06288616 0.011381698 -0.060100123 -0.06606339 0.014884001
0.005072399 0.021429366 -0.06548937 0.010553103 0.077622496 0.048898097 -0.09186262 -0.09862888
-0.077069126 -0.026123341 -0.09098969 0.06360909 -0.09191532 -0.12774816 -0.17570361 0.036112797
-0.014225654 0.08303702 0.17255498 0.023598718 0.0031180498 0.004200408 0.0023313663 0.09938048
-0.008647574 0.0699832 0.059800815 0.023906473 0.08078817 0.041944977 -0.004214093 0.022081416
0.029791452 -0.10133996 -0.017018748 -0.12694833 0.080471955 -0.05887792 -0.030447893 -0.05456102
0.14713672 0.070528954 0.113552324 -0.03784746 0.016780732 0.1297072 0.01318591 0.05796451
0.0039318088 0.05488811 -0.036358643 -0.0031355692 -0.019324489 0.045698974 0.03747381 0.028531142
0.026628757 -0.096941136 0.03655703 -0.032755125 -0.021022253 0.0053485394 0.060068276 0.031654816
-0.02256124 0.035100352 0.06439354 0.0774968 -0.058031697 -0.057542205 -0.08893786 0.012213945
0.0049613523 -0.0062798676 0.08493464 -0.02104235 -0.1348221 -0.03959896 -0.080798715 -0.0202625
0.034528166 0.02634065 0.04665172 0.01663451 0.06436758 -0.13547397 0.058606733 -0.014331958
-0.08198828 0.0012561427 0.0021887294 -0.085589565 -0.0451337 0.050898843 0.08926188 -0.043148555
-0.08016373 -0.02217921 -0.0029706168 -0.0475675 -0.034247763 0.012035662 -0.07844517 -0.06287367
0.01731392 0.045305856 0.08361582 0.072093256 -0.006740228 0.008570506 0.023784747 -0.107984416
-0.04611327 0.07211022 -0.045343418 -0.058520526 -0.08174957 -0.007102557 0.015972272 0.036448598
-0.0019895781 -0.023852043 0.041242678 0.042383976 0.06621678 0.028376438 0.036362767 -0.11068619
-0.054664597 -0.046555728 0.007760656 0.064761125 0.05212504 -0.14646694 0.012010514 -0.042151034
0.045730088 0.1088436 0.13157284 -0.11186055 -0.07253208 -0.0031076954 0.032672312 0.11467201
-0.009979621 -0.06763761 -0.062727824 0.09851556 0.012320567 -0.037389353 -0.082218476 -0.10297573
-0.10383164 -0.11721022 0.020095618 -0.015294898 0.028999532 -0.022107247 -0.008038424 -0.014494784
0.06076445 0.00022941147 0.08439056 -0.06133885 -0.027209066 0.094179034 -0.013545496 -0.052640896
-0.03799463 -0.12608083 0.029360004 0.14828855 -0.00743006 0.07664358 -0.031273585 0.041325334
-0.071065165 -0.1503748 -0.0111082 -0.079312645 -0.044492498 0.06552033 -0.016637225 -0.05968473
-0.13684791 0.13757464 -0.0712999 0.043240383 -0.08378282 0.014143938 -0.051336985 0.0012780126
0.04956329 -0.058358893 0.09254845 0.07580646 0.0900189 0.07694684 -0.15164879 -0.1049679
-0.0018900281 -0.14869511 0.12229673 0.09037851 0.028619744 -0.082040705 0.04586746 0.03606968
0.06811594 -0.07573852 0.07810239 -0.1135814 -0.09213668 0.06819532 0.111326896 -0.005682961
-0.064941585 -0.036818154 -0.03653456 -0.051005166 0.08123022 -0.112311676 0.06298927 0.01281954
-0.003920886 -0.025079332 0.07592155 0.07262504 -0.09977103 0.090477005 0.015428436 -0.12929955

bias f4 [84]
00000000: 45c1 64bd 73d9 a23c b3cf 983d ffa5 933d
00000010: 74d7 873d c9d3 1e3d 1f3c 8f3d f4f0 003e
00000020: 3957 a4bd 4287 7e3d 0cd0 1cbd 793c 69bd
00000030: 5602 9d3d 2f39 dabb 16da 2d3d 3792 3cbd
00000040: 7064 a53d 1810 273d aefe b03d 4036 afbc
00000050: 7eef e4bc c4a8 99bd fbcf 38bd a601 86bc
00000060: 743a 7a3d 63f0 6f3d ad3c 6e3c 7e65 aabd
00000070: 97d6 aa3d 8d80 593c 34cf 683d 727b 6cbd
00000080: 148c b6bc 3f0a 08bd ba6c abbd 9bed b4bd
00000090: a669 98bc 4974 babb cb96 053d fcc3 ab3d
000000a0: d2c9 953c ef7b d53d fe03 733d 7bdb b5bd
000000b0: d187 2dbc 0502 afbd 617a 1cbc c863 29bd
000000c0: f263 5d3d 97eb 34bd 9c9e 9b3c eb50 103e
000000d0: 817f 56bc 7af1 68bd 2aa5 0bbb 6904 cbbb
000000e0: 45a0 2fbd c3c5 7ebc a600 913d 6d5c a03d
000000f0: bfbf 8fbd ae4a 25bd 13d1 ba3d e7b5 4dbd
00000100: 700b 863c 9317 a7bd 4049 b43d 05ce 863d
00000110: 3810 cb3d fff6 21bd d4c1 6dbd 1a8d 30bd
00000120: 060b cf3d 0ff1 8dbc da17 a93c af33 ae3d
00000130: 0e09 813d fb2e 193d 0a20 b8bc 3f73 a03c
00000140: fc72 edbc 5065 5e3d 4a1e a03d f020 4d3c
-0.05584838 0.019879078 0.074614905 0.072093956 0.06632891 0.038776193 0.06993889 0.12591916
-0.08024449 0.06214071 -0.038284346 -0.056942437 0.07666461 -0.006659649 0.04244431 -0.04603788
0.080757976 0.040786833 0.08642326 -0.021388173 -0.02794623 -0.075028926 -0.04512022 -0.016358208
0.0610909 0.05857886 0.014540833 -0.08320139 0.08341711 0.013275278 0.05683823 -0.057734914
-0.022283591 -0.033212896 -0.08370347 -0.08834382 -0.018605065 -0.005690132 0.03261451 0.083869904
0.018284712 0.10424029 0.05932998 -0.08879753 -0.010591463 -0.08545307 -0.009550662 -0.041354924
0.054050393 -0.04416999 0.01899653 0.14093368 -0.013091923 -0.056870915 -0.0021308162 -0.006195594
-0.042877454 -0.01555008 0.07080202 0.07830129 -0.070189945 -0.040354423 0.09121909 -0.050222304
0.016362876 -0.08158793 0.08803034 0.06582264 0.09915203 -0.039542194 -0.058046177 -0.043103315
0.101095244 -0.01732686 0.020641256 0.085059516 0.06300555 0.03739832 -0.022476215 0.019586204
-0.028985493 0.054295838 0.07818277 0.01252006

weight f4 [10, 84]
00000000: 0a28 9d3d d303 623d 3f16 963e c9c3 1a3d
00000010: 0cdf d1bd b32b d13d d041 003e 4b6b 2bbe
00000020: cea8 b5bc 4947 9f3d 6ea8 773e 1dc4 7dbd
00000030: 270d 50be f60f 71bb a372 123d 2234 c23c
00000040: cd77 d8bd 0dc9 37be b504 97bd 8c45 96bd
00000050: dbb0 b83d 3f8e 84bd 4dab 3abe 1dbf f4bd
00000060: 89c4 183d 5509 003e 00c8 2c3d f79b d73c
00000070: 632d 353e 4374 b3bd 1075 83be 1a40 1fbe
00000080: e3fd 063d 005c 723d fe1c bf3d f863 81bc
00000090: 2623 1cbd 7887 fdbd 8d91 21be ccea a6be
000000a0: 282a 5cbe 5b14 583e 7902 91bd 8149 203d
000000b0: 1a8d d2bd a752 37bd 2148 a7bd 2aa6 243d
000000c0: 1299 f4bd 5e80 3a3e ec67 da3b 2609 81be
000000d0: daae 063e dd95 a53e dc3f babd 7c44 963e
000000e0: 42a8 b1bd 3330 9c3d dc7d 903e ccc9 113d
000000f0: d94b 093e 6ee2 603d 05ec a6bd 718a 8f3d
00000100: 0418 03be d801 a0bd e3a5 c93e 0ae6 86bd
00000110: b762 f8bc b3a1 c1bd adfe 623c aad6 b13c
00000120: 6617 79be f5e3 6bbe 3ae5 353d 2faa 7a3e
00000130: 2661 ccbd c0a7 a53b cea7 153e f698 8b3d
00000140: 6921 163d 648d 68be a4bc c6bd 52e9 d8bd
00000150: 346d 893b c2a5 8abe 363b d7bd 7a99 6d3d
00000160: 10ee 9d3e db9e a7bd 3a1a 53bd 429d 0d3e
00000170: bd88 0fbc 7c7c 773d 9ebd 04be 44b8 7f3d
00000180: 45a6 b3bd 489a 71bd 8d58 a7bd 6466 16bd
00000190: 5039 683e 4639 cdbd 64ce 043e f499 db3d
000001a0: 7a14 a33d 78c4 8c3d fa7c 733d 2129 803d
000001b0: d1aa 8bbe 8e36 13be b286 503e b1d1 903d
000001c0: 6b0e 173e 028a 9b3d 205d bb3e d2c4 36be
000001d0: 5f54 c8bd 1df1 19be 84ff 2d3d 920a b5bc
000001e0: 512a a63d 7bc2 92bd 4974 32bd 5639 55bd
000001f0: 7ba4 473e 19c7 18bd eb3c bcbd c4f2 8b3d
00000200: 2777 f63d 8dde 28bd a5f7 a6bb 310a bb3d
00000210: 17d7 833d b81b d1bc ccda c1bd 75c5 8a3e
00000220: 1267 c1bb a1b0 e1bb 8ac3 9ebd 2b14 c6bd
00000230: 34cc 923e 2478 a9bd 6b28 51be d2aa 963e
00000240: 397a 6bbe b9eb f03b d7ea 96bd 2ebd c63d
00000250: 7f37 92bc 7157 95bc 8cde 63be 1b0c 823e
00000260: df22 823e 775f 93bd 3f03 c53c eda3 b8bd
00000270: 02a9 dc3d 07f6 bcbd 3725 c73d dd76 9bbe
00000280: ea0e fdbd cf74 b73c d793 25be 4789 b53e
00000290: 480a 873d 48b6 3b3d 15e8 97bd 9691 b4be
000002a0: f62c 16bd c762 843d 273b bc3e bbc4 793b
000002b0: 6dfa 31bd 1b3b 793d c1f6 003e c87c f1bd
000002c0: 2dc6 42bd 46f3 20be ce65 693d 921c 2c3d
000002d0: cd0d acbc 0ccd 0fbd 0738 ddbc ce48 b9bb
000002e0: b120 cebd 9c45 9dbe 18d7 52bc c3bf b1bc
000002f0: 8f35 df3d 3e81 9abd b040 9e3e 3b18 5fbc
00000300: 872d a5be 6ca8 183e 5041 cebd 73d9 c53d
00000310: 19e7 a2be cbd7 403e ed98 bc3e 1e30 e0bd
00000320: a1f0 933c 47bb a23d f924 d2bd f1de 97bd
00000330: e283 71bd 0a8d f2bd 238f a03d f5dc f23e
00000340: 97cd 9abd 9914 1c3e 5599 a93c 2981 50bd
00000350: f4c0 d53d e83c f0bd b79c 2c3d 4385 713d
00000360: 4201 10bb e2f4 23bc c899 2bbe 7fea f83d
00000370: 0f7a 523e 1e14 1dbe c28c 40bd c63c 783d
00000380: b365 19bd 63d1 173d 5441 7e3e 7715 29be
00000390: a3dc b33d 1bdc 38bd bffc 0e3d b2e3 2abe
000003a0: fed1 1fbe 13b0 2c3d a485 7bbe f30d b43c
000003b0: 6925 cd3d 9847 31bd cf50 5dbd c8e7 4ebd
000003c0: d0c5 41be 83ce 903d e46e d1bd a9cc 21bd
000003d0: 9c09 82be f24b f9bd f961 953e 2f18 c13b
000003e0: 8a34 c8bd d4ef 893e 78f8 80bc e374 153a
000003f0: c422 18be b9db 29be 017f debb 2b21 a0bd
0.076736525 0.05517943 0.29313847 0.03778437 -0.10247621 0.10213413 0.12525105 -0.16740148
-0.022175219 0.077772684 0.24185345 -0.061954606 -0.20317517 -0.0036783195 0.035753857 0.0237065
-0.10569725 -0.17947789 -0.07373945 -0.07337484 0.090181075 -0.06472444 -0.18229409 -0.119505145
0.037296806 0.1250356 0.042182922 0.026319487 0.17693095 -0.087624095 -0.2567525 -0.15551797
0.03295697 0.05916977 0.09331702 -0.01579474 -0.038119458 -0.12379354 -0.1577818 -0.3260101
-0.21500456 0.21101515 -0.0708055 0.0391326 -0.10280819 -0.044756558 -0.08168054 0.04019753
-0.11943258 0.1821303 0.0066652205 -0.25202292 0.13152638 0.323409 -0.090942115 0.29349124
-0.08674671 0.07626381 0.28221023 0.03559284 0.1340784 0.05490344 -0.08150486 0.070088275
-0.1280213 -0.07812852 0.39384374 -0.06586845 -0.030320508 -0.0945467 0.013854665 0.021708805
-0.24325332 -0.23036177 0.04440806 0.24478982 -0.09979467 0.0050553977 0.14614794 0.06816284
0.036652956 -0.22710186 -0.09703949 -0.10591377 0.004193926 -0.27079588 -0.105093405 0.058007695
0.3084569 -0.08184596 -0.051538683 0.1382952 -0.008760628 0.060421452 -0.12962958 0.06243159
-0.08771948 -0.058985025 -0.081711866 -0.03671874 0.22678113 -0.1002069 0.12969357 0.107227236
0.0796289 0.06873411 0.05944536 0.06257845 -0.2727876 -0.1437628 0.20363882 0.070712455
0.14751594 0.07594682 0.36594486 -0.17848518 -0.097817175 -0.15033384 0.042480007 -0.022099767
0.0811354 -0.071660005 -0.04356793 -0.052056633 0.19496338 -0.03729925 -0.09191307 0.06833413
0.12034445 -0.041227866 -0.0050954395 0.09132803 0.064375095 -0.025525913 -0.0946556 0.27103773
-0.0059021795 -0.006887511 -0.0775214 -0.096718155 0.2867142 -0.08274868 -0.20425574 0.294272
-0.22995843 0.007352319 -0.07369011 0.09704052 -0.017848728 -0.018230172 -0.22252864 0.2539986
0.2541723 -0.07195943 0.0240494 -0.09015641 0.10774423 -0.092266135 0.09723895 -0.30364123
-0.1235636 0.022394566 -0.16169678 0.35456297 0.06593758 0.045828134 -0.07417313 -0.35267323
-0.03666397 0.06464153 0.3676388 0.0038111645 -0.043451715 0.060847383 0.12594129 -0.11791378
-0.047552276 -0.15717801 0.056981854 0.042019434 -0.021002674 -0.035107657 -0.027004255 -0.005654431
-0.10064829 -0.3071717 -0.012868665 -0.021697884 0.10898887 -0.07544182 0.30908728 -0.013616617
-0.32261297 0.14907998 -0.10071051 0.09660616 -0.3181694 0.18832318 0.36835423 -0.109466776
0.018059077 0.079458766 -0.10260958 -0.074155696 -0.058963664 -0.11843307 0.07839801 0.47434202
-0.075587444 0.15242232 0.020702997 -0.050904427 0.104371935 -0.11730367 0.042141642 0.05896498
-0.0021973406 -0.010007115 -0.16757882 0.121541016 0.20554374 -0.15339705 -0.047009237 0.060604833
-0.037450504 0.03706492 0.24829608 -0.16512094 0.087823175 -0.045131784 0.034909006 -0.16688421
-0.1560745 0.042160105 -0.24562699 0.021979308 0.10016901 -0.043281168 -0.054032143 -0.050514013
-0.18923116 0.07070639 -0.10226229 -0.03950182 -0.25397956 -0.121726885 0.2917631 0.0058927755
-0.09775646 0.26940787 -0.01574348 0.00057013164 -0.14857012 -0.16587724 -0.0067900424 -0.07818826

bias f4 [10]
00000000: ebd6 2dbd a5c6 d93c 4361 acbd 9d97 8abd
00000010: 833c 823d a357 023e 8cc8 02be f297 53bd
00000020: 78a7 383c 685b e93d
-0.04244129 0.026583979 -0.08416989 -0.06767199 0.06359198 0.12728743 -0.12771815 -0.05165858
0.011270396 0.113943875
